data.pth (torch, 5354 bytes, 6 tensors)

l1.weight f4 [8, 51]
00000000: 7bbe 30be 07a8 d23d d757 833d 5166 01bc
00000010: 3233 7f3e 6d4b af3e 0c6b a73e 4c87 b1bd
00000020: 443c 5dbd 20fb 22be fd4f afbd df24 053e
00000030: 60c7 a33e a2e8 153f 07fb 603e bdb0 113f
00000040: d482 73bd 2a1d fa3e 3c0a 843e 65d8 863e
00000050: f873 1f3f dfe8 0cbe 6fd0 1d3f ce1b f93e
00000060: bd7c 153f 57d8 c43e ae6a 8bbe 8acb e63e
00000070: 4056 0d3d f59b af3d 8003 0e3f 1b74 da3e
00000080: 417d 973b 3299 3d3d 5757 e93d 6636 0d3f
00000090: a253 91bd 986f cc3d d628 af3d 775b c9be
000000a0: 2de9 dd3e 6ec7 f13e 0a09 773d ee1d c83e
000000b0: d329 183d 7753 2abf 0911 b6be cc90 b63e
000000c0: 76b2 f83e 3916 053d 8460 503a bae7 0f3f
000000d0: aa62 eb3e 2fc7 d23e 9dfa 8dbb f478 f13e
000000e0: 4543 2b3f ea93 08bf 80a8 0a3f 4ddf c23e
000000f0: cf3b 313f 9511 5ebd 9637 933e b6e9 013f
00000100: 0d1b 103f c410 2e3f ea5b 173f 881e 063f
00000110: 4769 da3e 2cf0 093f 6f8d 08bf c422 3c3f
00000120: a0db 193e 4944 2b3f 04ca 353f 25a2 e53e
00000130: 4b4c 273f 527b 82be 221c 093f d1fd 293f
00000140: ad38 bb3e 3d8e a3be 28c3 1f3f ca40 bb3e
00000150: 3df5 e93e 18cf 3e3f 0ddc d53e e7ad 3c3f
00000160: 7f1f d83e a87a cc3e 41a0 8ebe 8db5 00bf
00000170: 0008 023f 81e9 ea3e 7477 263f 4f07 343f
00000180: 3fc3 ec3e d9ff 933e 1051 a73e 2ff5 693e
00000190: 23f8 cc3e 5e5b c63e 3a2d 87be 5b93 d83e
000001a0: 166c a9be 5511 983e 20f9 863e cfa8 e5bb
000001b0: 5a18 2f3f 8913 22be 3612 25be 248d afbe
000001c0: e8be ad3e b1eb 95be 785f 823e c920 1cbe
000001d0: e5cc bfbd 5406 7ebe c06c f03e 5756 233d
000001e0: 4764 bd3e f57b 473f dc06 8d3e e8dc 39be
000001f0: e04d dd3e 6073 de3e de6d c63e 472e 55be
00000200: 516b d23e f663 b33e e211 1b3f 96ca 123f
00000210: 37b7 e03e d316 9bbe 6fed d2bd 1d3f 02bf
00000220: 6e33 ca3e 2925 94bc 0754 15bf 0e78 a5bd
00000230: 2b18 98be 3f93 b43e c5df f43e 7cbc 34be
00000240: 1dcd e33e 8673 c5be 3062 d53e e33e 33bf
00000250: f4da 77be 5270 9c3e fac0 f4bd 4bb9 88bd
00000260: a101 fa3d d26c c53e def7 973c d6f9 333f
00000270: 957c 813d 1d2e 41be f982 d23d e5af abbe
00000280: e2b4 063f 8766 203f 7751 143f 5815 74bd
00000290: c55d 0f3f 8e64 44be d713 9f3e c952 413f
000002a0: 5ca9 d33e 34ab fe3d 6699 633e bf2c 12be
000002b0: b6a6 abbe de94 abbe 7cc8 e33e 0c99 8abe
000002c0: dd5b abbe e559 abbe ec1b e53e 98a2 4f3d
000002d0: 1aad e43c 560a 2dbd 5d31 95be 88bf 83be
000002e0: e953 dd3e c413 f53e cb09 003f 6140 f93d
000002f0: 120d f43d c296 293f f753 173f 1161 193f
00000300: 4764 343d 3dc0 ebbe fc86 753e a587 0c3c
00000310: 6a7f 333f b3fa 30bd 7676 333f 7312 633e
00000320: 2d28 3abe d0c9 073e 368f c53e d6da c33e
00000330: be01 8dbe 471e 063f 5f87 223d 0258 c63e
00000340: 48f2 04be 60c8 1cbf 0442 8abe 9dc9 443c
00000350: 2e00 82be 000e 58ba 74bf 933e 3ebd 6dbe
00000360: c813 a3bd de58 503f 7bf5 093f 4275 2f3f
00000370: 5234 ed3e 6f6e 193f 209d a3be 1d19 7fbe
00000380: e677 ccbe c941 e6bd 8f69 ccbe b156 ccbe
00000390: ba8e 023f 1d05 d33e 1607 1d3f 17b6 bebd
000003a0: 42ed fa3e c307 bd3e 89f4 c8bd 3d29 403f
000003b0: 724d fabd c09b bc3d 9e6e ed3e c94e 093f
000003c0: e4fc d6bd 6300 24bd dd28 2abe fd8c 293f
000003d0: 0686 29bc 8bce 263f 5ef1 cf3e dedd 563f
000003e0: 8077 0a3f 8665 ccbe 0b50 3cbc 0d93 34be
000003f0: 3e5a 233f fbd0 3dbd 1de9 97be ffb1 8bbe
-0.17260163 0.10285955 0.064132385 -0.007897929 0.24921873 0.34237233 0.32698858 -0.08668384
-0.054012552 -0.15916109 -0.085601784 0.13002346 0.3198805 0.58558095 0.2197076 0.56910306
-0.05945094 0.48850375 0.25789058 0.2633697 0.6228633 -0.13760708 0.6164617 0.48654026
0.5839346 0.38446304 -0.27229828 0.45077163 0.034506083 0.08574668 0.5547409 0.42666706
0.0046230857 0.046288677 0.11393612 0.5516113 -0.0709603 0.09982222 0.08552711 -0.39327595
0.43341962 0.47222465 0.060311355 0.39085335 0.03714926 -0.6653361 -0.35559872 0.35657346
0.48573655 0.032491896 0.0007948952 0.5621296 0.45973712 0.4116759 -0.004332854 0.47162592
0.6689952 -0.533507 0.5416336 0.3806099 0.69231886 -0.054215986 0.28753346 0.5074724
0.56291276 0.6799433 0.59124625 0.52390337 0.42658445 0.538821 -0.5334081 0.7349055
0.15025187 0.6690107 0.71011376 0.4485027 0.6535079 -0.2548471 0.5355855 0.6640292
0.36566678 -0.31944457 0.6240716 0.36572868 0.45694914 0.7453475 0.41769448 0.73702854
0.4221153 0.3993733 -0.2785664 -0.50277025 0.5079346 0.45881274 0.6502602 0.7032365
0.4624271 0.28906134 0.32679033 0.22847436 0.40033063 0.38741583 -0.26401693 0.42299923
-0.33090276 0.29700723 0.26361942 -0.007008649 0.6839653 -0.15827765 -0.16120228 -0.3428737
0.33934712 -0.2928138 0.25463462 -0.15246882 -0.093652524 -0.24807101 0.4695797 0.039877262
0.36990568 0.7792352 0.27544296 -0.18150675 0.43223476 0.434474 0.38755697 -0.20818435
0.410975 0.35037202 0.6057416 0.5734037 0.43889782 -0.3029085 -0.10299193 -0.50877553
0.39492363 -0.018084126 -0.5833134 -0.08079539 -0.2970594 0.3526859 0.47826973 -0.17650026
0.44492427 -0.385647 0.41676474 -0.7001783 -0.24204618 0.30554444 -0.1195087 -0.06675967
0.12207342 0.38559586 0.01855081 0.70303094 0.0632259 -0.18865247 0.10278887 -0.33532634
0.52619755 0.62656444 0.57936805 -0.059590667 0.56002456 -0.19178984 0.31069824 0.75516945
0.41340148 0.12434998 0.22226486 -0.14274882 -0.33525628 -0.33512014 0.44488895 -0.2706989
-0.33468524 -0.33467022 0.44747865 0.05069217 0.027914573 -0.042246185 -0.29139224 -0.25732064
0.4322808 0.47866642 0.5001494 0.121704824 0.119165555 0.66245663 0.59112495 0.59913737
0.044040944 -0.46045104 0.23977274 0.008577262 0.70116293 -0.043207835 0.7010263 0.22175007
-0.18179388 0.13260579 0.38585824 0.38252896 -0.27540392 0.5238995 0.03967988 0.3873902
-0.12983048 -0.6124325 -0.2700349 0.012010959 -0.25390762 -0.0008241832 0.28857005 -0.23216721
-0.07962757 0.813856 0.538902 0.68538296 0.4632898 0.59934133 -0.31955814 -0.24911924
-0.39935225 -0.11243016 -0.39924285 -0.3990989 0.50999033 0.4121484 0.6133894 -0.09312075
0.49009138 0.36919984 -0.098122664 0.75062925 -0.12221803 0.092093945 0.46373457 0.5363584
-0.10497454 -0.04003943 -0.1661715 0.66230756 -0.010346895 0.6515891 0.40613836 0.8393229
0.5408859 -0.39921206 -0.011493693 -0.1763422 0.63809574 -0.046341877 -0.2967004 -0.27284238

l1.bias f4 [8]
00000000: cb53 2a3f 788f 083f 76a7 4f3f 87a2 ab3e
00000010: b157 cc3e 08e0 1f3f 0b3c 1e3f fe5e 573f
0.6653411 0.53343916 0.811149 0.33522436 0.39910653 0.6245122 0.6181037 0.8412932

l2.weight f4 [8, 8]
00000000: a566 40bf 9782 583e e749 743f 9be8 033e
00000010: fabd b83e b388 99be 6538 b53f 541b 873f
00000020: 4c86 8a3f ef12 943f b995 da3d 7f25 2a3f
00000030: accc 6e3f e243 993f 14bd 73bf 6929 cabe
00000040: f0db cebe ff95 8fbe 06f2 b63e a282 b9bd
00000050: 879d a03f dc37 f3be eceb 4a3f 9912 bdbd
00000060: 70e8 493d 3ebf 9dbe ba61 69be ccdc ebbd
00000070: 9a21 81be 007c b9bc 3271 633e 72db b3be
00000080: 2c5f f93e 85d4 9fbf 3a8b 193f dd6f 6abf
00000090: 7ba1 60be cc29 2b3f ccd3 333f 063a 0ebf
000000a0: a67e 8c3f 91f4 063e a041 5d3f 6327 62bf
000000b0: 3f3e 4c3d 1ee3 823f f9c3 3ebf fe8f 803f
000000c0: ade8 2a3e 4e58 cd3f 79f5 01bf d461 a73f
000000d0: b991 6fbf a914 dcbe 68e1 5e3e e6e7 ab3f
000000e0: 74cd 3d3f 5793 53be 3f1f 3d3f bd3c 6bbf
000000f0: 6349 56bf 951d 5a3f 6a44 0abf 069a 0a3e
-0.75156623 0.21143566 0.95425266 0.128817 0.3608244 -0.29987106 1.4157835 1.0555215
1.0822234 1.1568278 0.106730886 0.66463464 0.93281054 1.1973841 -0.95210385 -0.39484718
-0.40402174 -0.28044125 0.35731524 -0.09058119 1.2548074 -0.47503555 0.7926624 -0.09232063
0.049293935 -0.3080997 -0.22791186 -0.11516723 -0.25220948 -0.022642136 0.2221115 -0.3512836
0.48705423 -1.2486731 0.5997807 -0.9157694 -0.219366 0.6686065 0.7024505 -0.55557287
1.097615 0.13179232 0.8642826 -0.8834135 0.04986405 1.0225561 -0.7451778 1.0043943
0.16690321 1.6042573 -0.50765187 1.307673 -0.9358173 -0.42984512 0.21765673 1.3430145
0.7414162 -0.20661674 0.738758 -0.91889554 -0.8370573 0.8520139 -0.5401064 0.13535318

l2.bias f4 [8]
00000000: 12c1 5c3f 73fc 343e 347f a4bd f8a9 a2be
00000010: 4401 3e3e 6a93 263e 9cc1 473f 3d4d 073f
0.862321 0.17674427 -0.080320746 -0.317703 0.1855517 0.16267172 0.780298 0.5285223

l3.weight f4 [7, 8]
00000000: bef8 123f 1ec2 32bf c971 573f 061c 3b3e
00000010: a349 a5bd d0a2 b5bf 480d 89bf 8f49 00bf
00000020: fd1e b5bf 91b5 303f 2601 b1be 7ab2 273e
00000030: d357 5ebf 9ae4 54bd 85fe 5dbe 23fe 80bf
00000040: bc94 013e 56ed d6be 270c 41be 6f11 5fbe
00000050: 9f92 8fbf 4c79 823e de86 febd f4fd 9dbf
00000060: 2d94 b6b9 c6a1 12bf 690a 51bf 4475 1abe
00000070: 9e5c 973f cd83 c13d 8cb1 89bf 34ee e53e
00000080: 9716 40bf 1be2 20be 939b f0bf d883 80bd
00000090: 87cb a1bf 7661 543f d86d 3ebe f210 573f
000000a0: 7692 20bf 103c fc3e d492 25c0 66f2 7abe
000000b0: 1e9f 31bf 64c3 babf b5b3 e33e 644b 22bf
000000c0: 29fe c83e 1d06 cfbf 7268 2abf 8a5f afbe
000000d0: a514 31bf 9160 bdbf 9bce 1d3f d621 18bf
0.574108 -0.6982745 0.84158 0.18272409 -0.08070686 -1.4190311 -1.0707178 -0.5011224
-1.4150082 0.6902705 -0.3457119 0.16376677 -0.8685276 -0.051975824 -0.21679123 -1.0077556
0.12654394 -0.41977948 -0.18852292 -0.21783994 -1.121662 0.25483167 -0.124280676 -1.2343125
-0.00034824145 -0.57278097 -0.8165651 -0.15083796 1.182514 0.09448967 -1.0757308 0.44908297
-0.7503447 -0.15711252 -1.8797477 -0.06275147 -1.2640237 0.82961214 -0.1859659 0.8401023
-0.6272348 0.49264574 -2.5870867 -0.2450653 -0.6938342 -1.4590878 0.44473043 -0.63396287
0.3925641 -1.6173741 -0.6656562 -0.34252578 -0.69172126 -1.4795095 0.6164338 -0.5942663

l3.bias f4 [7]
00000000: 1fc9 e13e 76c1 69be f936 a5be 8b0a 743e
00000010: d2d5 b33d 60db a93e 155c 153e
0.44098756 -0.22827706 -0.32268503 0.23832147 0.08781017 0.33175182 0.14585908
