data.pth (torch, 5418 bytes, 6 tensors)

l1.weight f4 [8, 54]
0	0x3ecb1e4f	0.3967156
1	0x3f34c92f	0.7061948
2	0xbc7e39ef	-0.015516742
3	0xbe147045	-0.14495952
4	0xbe400f9f	-0.18755959
5	0xbe943583	-0.28947076
6	0x3e7404d7	0.23829971
7	0xbd33e245	-0.04391696
8	0x3e54d6ac	0.20785016
9	0xbd5729d1	-0.052530114
10	0xbe293b3e	-0.16526505
11	0xbe003b25	-0.12522562
12	0x3f1c3b29	0.6102777
13	0x3d56c4d8	0.05243382
14	0x3f1939d2	0.5985385
15	0xbe41ca3a	-0.189248
16	0xbe4785da	-0.19484654
17	0xbe9ea7a9	-0.3098729
18	0x3e8b7efc	0.2724532
19	0xbeb84849	-0.3599265
20	0x3ea6bc07	0.32565328
21	0xbeb85cc9	-0.3600829
22	0xbeb7bcf9	-0.35886362
23	0xbf1080c2	-0.5644647
24	0xbde5d664	-0.112225324
25	0xbe894bae	-0.26815552
26	0x3ebfb4ea	0.37442714
27	0x3ef90cb3	0.486425
28	0x3f0fb616	0.56137216
29	0x3f008262	0.5019895
30	0xbed94331	-0.42434075
31	0xbd7e4d16	-0.062085234
32	0x3e675cdb	0.22594015
33	0xbded6815	-0.11592118
34	0x3f3dc218	0.7412429
35	0xbd331791	-0.043723647
36	0x3f287d1a	0.6581589
37	0x3e93703a	0.2879656
38	0x3da68b2c	0.08132014
39	0x3e75ecc9	0.24016108
40	0xbe920918	-0.28522563
41	0x3eb787be	0.3584575
42	0xbdb226cc	-0.08698806
43	0x3f09a07c	0.53760505
44	0x3e15ef17	0.14641987
45	0x3f25ffe4	0.64843583
46	0x3f39debd	0.72605497
47	0x3ecaa18c	0.39576375
48	0x3dfa47c8	0.122207224
49	0x3eac7661	0.33684066
50	0xbd15504d	-0.036453534
51	0x3dee5c29	0.11638672
52	0x3e130bf1	0.14360024
53	0x3ee8f6ae	0.45500702
54	0xbe1aaf47	-0.15105926
55	0xbe9dbccc	-0.30808103
56	0xbd913383	-0.07089903
57	0x3e9ea3d9	0.3098438
58	0xbd10e3e6	-0.03537359
59	0xbf035b73	-0.51311415
60	0xbe25f80f	-0.16207908
61	0x3d464d21	0.0484134
62	0xbe2929e4	-0.16519886
63	0xbde57df1	-0.11205662
64	0x3ebb695b	0.36603817
65	0x3f0e9008	0.55688524
66	0x3f2d80ad	0.6777447
67	0x3f1eb742	0.6199838
68	0xbd9a96a7	-0.07548266
69	0x3eccaffe	0.3997802
70	0x3ec1dbad	0.37862912
71	0xbf0365b0	-0.5132704
72	0x3f183602	0.5945741
73	0x3efcbc05	0.49362198
74	0xbdba3897	-0.09092825
75	0x3f06fc88	0.5272908
76	0x3efd5622	0.49479777
77	0x3f39994a	0.72499526
78	0x3ee6433e	0.44973177
79	0x3ed18a9b	0.4092606
80	0x3f114c4b	0.5675704
81	0xbea05cc2	-0.3132077
82	0x3efd7cfd	0.4950942
83	0xbed1caaf	-0.40974948
84	0xbe9f9ed5	-0.31175867
85	0x3ef4fd9a	0.47849733
86	0xbc4958e0	-0.012289256
87	0xbd693448	-0.056934625
88	0xbe14e4d3	-0.14540415
89	0x3edc5ea2	0.4304095
90	0x3e7a9f80	0.24474907
91	0xbdefd277	-0.11710065
92	0xbe0df699	-0.13863601
93	0x3d0e56f7	0.034750905
94	0xbe7cf199	-0.24701537
95	0x3f23f3cc	0.6404388
96	0x3eb39455	0.35074106
97	0xbe3b282c	-0.18277043
98	0x3effc9fa	0.49958783
99	0xbdc1c9f2	-0.09462346
100	0xbf035ded	-0.51315194
101	0xbe8ad7ce	-0.2711777
102	0x3f0cc6b4	0.54990697
103	0x3f35c1a6	0.7099861
104	0x3f07b809	0.5301519
105	0x3f14fe95	0.5820096
106	0xbe246935	-0.16055758
107	0x3d3ae06b	0.045624178
108	0xbe07a98b	-0.1324827
109	0xbe6c9a4b	-0.23105733
110	0x3e7775bb	0.24166004
111	0x3e994275	0.29933515
112	0x3e5e8975	0.21732123
113	0x3e9bc3b7	0.30422756
114	0x3d9e0dfc	0.07717511
115	0x3d98cba2	0.07460715
116	0x3e82369a	0.25432283
117	0x3e0af423	0.13569693
118	0x3e9a2439	0.3010576
119	0x3edf3b01	0.43599704
120	0x3e312632	0.17299727
121	0x3f00035c	0.50005126
122	0xbe721e55	-0.23644383
123	0x3e83d92b	0.25751624
124	0x3ec96116	0.39331883
125	0x3e897120	0.2684412
126	0xbdc3370e	-0.09531985
127	0x3f19592d	0.59901696
128	0xbe8b8839	-0.27252367
129	0x3edb82a3	0.42873105
130	0x3f1d8831	0.61535937
131	0x3ede74c3	0.43448457
132	0x3ee71a80	0.45137405
133	0x3ea82e35	0.32847753
134	0xbe7766bd	-0.24160285
135	0xbea11193	-0.3145872
136	0xbd6baad4	-0.05753596
137	0xbea04224	-0.3130046
138	0x3e724ae3	0.2366138
139	0x3ee99a22	0.45625407
140	0xbd805a30	-0.06267202
141	0x3e80f65d	0.2518796
142	0x3d1b2cf5	0.03788467
143	0x3ee40612	0.4453588
144	0x3c62ca87	0.013842232
145	0x3e6ef42a	0.23335329
146	0x3e5dec3f	0.21672152
147	0x3e726e19	0.23674811
148	0x3e4c1ae9	0.1993214
149	0x3a0ae832	0.0005298882
150	0x3ec67541	0.38761333
151	0xbe88ca71	-0.2671695
152	0x3e94f648	0.29094148
153	0xbe3d7551	-0.18501784
154	0xbf258ee2	-0.64671147
155	0xbe7aba1c	-0.24485058
156	0xbd914fc9	-0.07095296
157	0xbdc0da29	-0.09416611
158	0x3ea299d4	0.31757987
159	0xbdccb14c	-0.09994754
160	0x3e43dde2	0.1912761
161	0x3d09cb8a	0.033641376
162	0x3f234bb7	0.63787407
163	0x3e56cf8a	0.20977607
164	0x3dfe8d5d	0.12429307
165	0x3ec25527	0.3795559
166	0x3df23506	0.1182652
167	0x3ec9c293	0.3940626
168	0x3d8ee878	0.06977934
169	0x3df81fe8	0.12115461
170	0xbdd3f9fb	-0.10350414
171	0x3df096c8	0.11747509
172	0x3eb1d575	0.34733167
173	0x3e5ac876	0.21365532
174	0xbe599c34	-0.21250993
175	0x3d616968	0.055032164
176	0x3e436335	0.19080813
177	0x3e90327e	0.28163522
178	0x3e8e840e	0.27835125
179	0x3eded309	0.43520382
180	0xbe79f8eb	-0.24411361
181	0x3e9d9dec	0.30784547
182	0x3ec04208	0.37550378
183	0x3ea61d5b	0.3244427
184	0x3e8abf31	0.27098992
185	0x3e70c630	0.23513103
186	0x3cbfca79	0.023411976
187	0x3ec702eb	0.38869414
188	0xbd1f8c22	-0.038952
189	0xbe648c86	-0.2231923
190	0xbdac3a74	-0.084095865
191	0xbe1a710e	-0.1508219
192	0x3e9116d1	0.2833772
193	0x3d8d6e25	0.06905774
194	0x3e8abe44	0.27098286
195	0x3ddcf81f	0.10789513
196	0xbd64d11b	-0.05586348
197	0x3e8c8c9e	0.27451032
198	0xbdf518ad	-0.11967597
199	0xbe3a7be5	-0.18211325
200	0x3cf22e80	0.029563189
201	0x3b9224da	0.0044599595
202	0x3e97ef4e	0.29674762
203	0xbe957817	-0.29193184
204	0x3da5b07f	0.080903046
205	0xbd93f5f2	-0.07224645
206	0x3e05cfbd	0.13067527
207	0x3dd7cf03	0.10537531
208	0x3f6e5a00	0.9310608
209	0x3f14d828	0.5814233
210	0x3e55ed67	0.20891343
211	0xbec8ef42	-0.3924504
212	0x3d8e9db0	0.0696367
213	0xbe8233ce	-0.2543015
214	0x3de50ec8	0.1118446
215	0x3ea0aeee	0.3138346
216	0x3f2f21f7	0.684112
217	0x3de336a7	0.110944085
218	0xbecfe36b	-0.40603194
219	0x3e9384f7	0.28812382
220	0x3dcc8622	0.09986521
221	0xbf14e608	-0.581635
222	0xbc5cc3a8	-0.013474382
223	0xbe6fb4bb	-0.23408787
224	0xbec1139f	-0.37710282
225	0xbe2e41e1	-0.17017318
226	0x3f13c634	0.5772431
227	0xbe044ee6	-0.12920722
228	0x3d7d5123	0.061844956
229	0xbe80e467	-0.25174257
230	0xbe2c07eb	-0.16799895
231	0xbdaa614c	-0.08319339
232	0x3ed15cc2	0.4089108
233	0xbf11b2ef	-0.56913656
234	0x3e96aaf1	0.29427293
235	0x3f2918eb	0.66053647
236	0x3f0bc1a1	0.5459233
237	0x3f06b2de	0.5261668
238	0x3f2bc023	0.6709005
239	0x3ecfc0be	0.40576738
240	0xbe6e0fca	-0.2324821
241	0x3ed19d1a	0.4094017
242	0x3f308a94	0.68961453
243	0xbe2a1042	-0.16607764
244	0x3f0af6f7	0.5428309
245	0xbe9c4e54	-0.3052851
246	0xbea709a6	-0.3262455
247	0xbe9edda6	-0.3102848
248	0x3e8acb67	0.2710831
249	0xbeb8be3b	-0.36082634
250	0xbe2a361b	-0.16622202
251	0xbe443a57	-0.1916288
252	0x3ec4c55c	0.38431823
253	0xbef3c785	-0.4761316
254	0xbde6d96c	-0.11271939
255	0xbe4ce5b4	-0.200095

l1.bias f4 [8]
0	0x3eb85dd5	0.36009088
1	0x3f0359d8	0.51308966
2	0x3f268cbb	0.6505849
3	0x3f66b13e	0.901142
4	0x3f1ef918	0.62098837
5	0x3f053d70	0.5204687
6	0x3e94c024	0.29052842
7	0x3ed893aa	0.4230016

l2.weight f4 [8, 8]
0	0x3f87f44a	1.0621426
1	0xbe937e07	-0.2880709
2	0xbec5bd84	-0.3862115
3	0x3e3366b3	0.17519645
4	0x3eae7f4e	0.340815
5	0xbe82ffd8	-0.25585818
6	0x3f5961c2	0.8491479
7	0x3faabfd6	1.3339794
8	0x3f45c9fa	0.77261317
9	0xbf8bd994	-1.0925775
10	0xbf2cb0c0	-0.674572
11	0x3f4ab5ae	0.7918347
12	0x3ec9234d	0.39284745
13	0x3ee7bc9c	0.45261085
14	0x3f751fb2	0.9575149
15	0xbb13dbce	-0.0022561434
16	0x3e809d5a	0.2512005
17	0xbe36de6f	-0.17858289
18	0xbe7fdbff	-0.24986266
19	0x3e54f2b8	0.20795715
20	0xbe1ec650	-0.15505338
21	0xbe8f2ccc	-0.27963865
22	0xbeb9f2c4	-0.36318028
23	0x3e0839fc	0.1330337
24	0x3f61ff9f	0.8828067
25	0x3f329d9f	0.6977176
26	0x3ec20a63	0.3789855
27	0xbdfee318	-0.124456584
28	0xbf4d9276	-0.80301607
29	0x3f3d2923	0.73890895
30	0x3f89bc05	1.0760504
31	0x3e862bd5	0.26205316
32	0xbf85b07a	-1.0444481
33	0x3e7f3f9f	0.24926613
34	0x3fa15ae4	1.2605863
35	0x3f76aed2	0.96360505
36	0xbf195ebb	-0.5991017
37	0x3f8358cf	1.0261477
38	0x3eca655e	0.39530462
39	0x3f3be4a0	0.7339573
40	0x3f1485b3	0.5801651
41	0xbf467e57	-0.7753653
42	0xbe8e8a3e	-0.27839845
43	0x3f82e4cc	1.0226073
44	0x3dbaf70d	0.091291524
45	0xbf7e0d2e	-0.9923886
46	0xbce6bec1	-0.02816713
47	0x3ec3cd1d	0.38242427
48	0x3e8ea01f	0.27856538
49	0x3f78b842	0.97156155
50	0x3ecf2385	0.40456787
51	0x3f56ae51	0.83859736
52	0x3fae1c33	1.3602356
53	0x3f2d6165	0.6772674
54	0xbbea9ba2	-0.007159666
55	0xbf711608	-0.9417424
56	0xbe87cb96	-0.2652251
57	0xbe952472	-0.29129368
58	0x3f4e67fc	0.8062742
59	0x3f829ce3	1.0204128
60	0x3e0e364e	0.13887903
61	0xbea6ddec	-0.32591188
62	0xbf4c9083	-0.7990801
63	0x3f1b0334	0.6055176

l2.bias f4 [8]
0	0x3ea04d8b	0.3130916
1	0x3e101216	0.14069399
2	0xbeb808e4	-0.35944283
3	0xbee8c3fe	-0.4546203
4	0x3ee040a3	0.43799314
5	0x3f20cc07	0.6281132
6	0x3cf8dc4c	0.030378483
7	0x3ecf3204	0.40467846

l3.weight f4 [7, 8]
0	0xbf9ce2cc	-1.2256713
1	0xbf955379	-1.1666099
2	0xbe6f6ee9	-0.23382153
3	0x3f256e85	0.64621764
4	0x3e818678	0.25297904
5	0xbe826929	-0.25470856
6	0xbe6fc0ce	-0.23413393
7	0xbfefd31c	-1.87363
8	0x3f1e701b	0.6188981
9	0x3eb633df	0.3558645
10	0xbcec0e55	-0.028815428
11	0x3e5b04b4	0.21388513
12	0xbf756377	-0.95854896
13	0x3ed443c7	0.4145796
14	0xbfb28d22	-1.394932
15	0xbfcab557	-1.583659
16	0x3e8196af	0.25310275
17	0xbf154c16	-0.5831922
18	0xbe0e23bc	-0.13880819
19	0xbfa35194	-1.2759271
20	0x3f1f77d0	0.62292194
21	0x3f3d3236	0.7390474
22	0xbfd6db41	-1.6785661
23	0x3fa2281b	1.2668489
24	0xbfca1faa	-1.5790913
25	0xbf7bfdcb	-0.9843413
26	0x3e8200b4	0.2539116
27	0xbfa0e4c3	-1.2569813
28	0x3e644a48	0.22293961
29	0xbeef4399	-0.4673126
30	0x3ee7a4ba	0.45242864
31	0x3f578701	0.84190375
32	0x3da5acf0	0.08089626
33	0xbf17a0d0	-0.59229755
34	0xbd196749	-0.037452016
35	0x3ddd3ed8	0.10803002
36	0xbfb254c1	-1.3932115
37	0xbf232611	-0.6372996
38	0x3f16266f	0.58652395
39	0xbfb0c58b	-1.3810285
40	0x3e57d9b3	0.2107914
41	0x3e8eea1a	0.2791298
42	0xbdf72548	-0.12067658
43	0x3eac26f9	0.33623484
44	0x3ea709bd	0.32624617
45	0xbf918410	-1.1368427
46	0xbf909603	-1.129578
47	0xbf091173	-0.5354225
48	0x3e194afb	0.14970009
49	0x3f3270fa	0.6970364
50	0x3db7fe50	0.08984053
51	0xbf8b2e28	-1.0873461
52	0xbf831ec7	-1.0243767
53	0x3f0ef2e9	0.558394
54	0xbe299436	-0.16560444
55	0x3e5cdabe	0.21567819

l3.bias f4 [7]
0	0xbeb79d94	-0.3586241
1	0xbdaae49c	-0.08344385
2	0xbc8b8ee6	-0.017035913
3	0x3ef1601b	0.47143635
4	0x3ea9566f	0.33073756
5	0x3d92009e	0.07129024
6	0xbd834aca	-0.06410749
